…
ts":[{"output_type":"stream","name":"stdout","text":["Downloading data from https://storage.googleapis.com/tensorflow/keras-applications/vgg19/vgg19_weights_tf_dim_ordering_tf_kernels_notop.h5\n","80142336/80134624 [==============================] - 1s 0us/step\n","80150528/80134624 [==============================] - 1s 0us/step\n","Model: \"sequential\"\n","_________________________________________________________________\n"," Layer (type)                Output Shape              Param #   \n","=================================================================\n"," vgg19 (Functional)          (None, 512)               20024384  \n","                                                                 \n"," flatten (Flatten)           (None, 512)               0         \n","                                                                 \n"," batch_normalization (BatchN  (None, 512)              2048      \n"," ormalization)                                                   \n","                                                                 \n"," dropout (Dropout)           (None, 512)               0         \n","                                                                 \n"," dense (Dense)               (None, 6)                 3078      \n","                                                                 \n","=================================================================\n","Total params: 20,029,510\n","Trainable params: 9,443,334\n","Non-trainable params: 10,586,176\n","_________________________________________________________________\n"]}]},{"cell_type":"code","metadata":{"colab":{"base_uri":"https://localhost:8080/"}
…
pe":"stream","name":"stdout","text":["Downloading data from https://storage.googleapis.com/tensorflow/keras-applications/inception_v3/inception_v3_weights_tf_dim_ordering_tf_kernels_notop.h5\n","87916544/87910968 [==============================] - 1s 0us/step\n","87924736/87910968 [==============================] - 1s 0us/step\n","Model: \"sequential_1\"\n","_________________________________________________________________\n"," Layer (type)                Output Shape              Param #   \n","=================================================================\n"," inception_v3 (Functional)   (None, 2048)              21802784  \n","                                                                 \n"," flatten_1 (Flatten)         (None, 2048)              0         \n","                                                                 \n"," batch_normalization_95 (Bat  (None, 2048)             8192      \n"," chNormalization)                                                \n","                                                                 \n"," dense_1 (Dense)             (None, 1024)              2098176   \n","                                                                 \n"," batch_normalization_96 (Bat  (None, 1024)             4096      \n"," chNormalization)                                                \n","                                                                 \n"," dense_2 (Dense)             (None, 512)               524800    \n","                                                                 \n"," dropout_1 (Dropout)         (None, 512)               0         \n","                                                                 \n"," batch_normalization_97 (Bat  (None, 512)              2048      \n"," chNormalization)                                                \n","                                                                 \n"," dense_3 (Dense)             (None, 256)               131328    \n","                                                                 \n"," dropout_2 (Dropout)         (None, 256)               0         \n","                                                                 \n"," batch_normalization_98 (Bat  (None, 256)              1024      \n"," chNormalization)                                                \n","                                                                 \n"," dense_4 (Dense)             (None, 6)                 1542      \n","                                                                 \n","=================================================================\n","Total params: 24,573,990\n","Trainable params: 7,919,110\n","Non-trainable params: 16,654,880\n","_________________________________________________________________\n"]}]},{"cell_type":"code","metadata":{"id":"zGQOXVbNCZmD","executionInfo":{"status":
…
_type":"stream","name":"stdout","text":["Downloading data from https://storage.googleapis.com/tensorflow/keras-applications/resnet/resnet101v2_weights_tf_dim_ordering_tf_kernels_notop.h5\n","171319296/171317808 [==============================] - 5s 0us/step\n","171327488/171317808 [==============================] - 5s 0us/step\n","Model: \"sequential_2\"\n","_________________________________________________________________\n"," Layer (type)                Output Shape              Param #   \n","=================================================================\n"," resnet101v2 (Functional)    (None, 2048)              42626560  \n","                                                                 \n"," flatten_2 (Flatten)         (None, 2048)              0         \n","                                                                 \n"," batch_normalization_99 (Bat  (None, 2048)             8192      \n"," chNormalization)                                                \n","                                                                 \n"," dense_5 (Dense)             (None, 1024)              2098176   \n","                                                                 \n"," batch_normalization_100 (Ba  (None, 1024)             4096      \n"," tchNormalization)                                               \n","                                                                 \n"," dense_6 (Dense)             (None, 512)               524800    \n","                                                                 \n"," dropout_3 (Dropout)         (None, 512)               0         \n","                                                                 \n"," batch_normalization_101 (Ba  (None, 512)              2048      \n"," tchNormalization)                                               \n","                                                                 \n"," dense_7 (Dense)             (None, 256)               131328    \n","                                                                 \n"," dropout_4 (Dropout)         (None, 256)               0         \n","                                                                 \n"," batch_normalization_102 (Ba  (None, 256)              1024      \n"," tchNormalization)                                               \n","                                                                 \n"," dense_8 (Dense)             (None, 6)                 1542      \n","                                                                 \n","=================================================================\n","Total params: 45,397,766\n","Trainable params: 14,847,750\n","Non-trainable params: 30,550,016\n","_________________________________________________________________\n"]}]},{"cell_type":"code","metadata":{"id":"lTiuQ895LBEY"},"source":["model_3.compi
…
